app/src/main/assets/keras_final_model.tflite (tflite, 47416 bytes, 8 tensors)

unknown_0 f4 [64]
00000000: 89eb ba3e ad46 6b3e 4a1f aa3e 7ac1 ea3d
00000010: c120 403e 7a40 5c3e 258c 773e 87b3 003e
00000020: df1a 943e 3337 2a3e b836 a73e 8511 7e3e
00000030: a1af 603e 1687 153e 42b2 873e 1d37 da3d
00000040: 0be6 263e 76bf dc3d 3226 7f3e 4e7a 083e
00000050: 66c6 a93e 157a 903e 32a9 2d3e 3269 7d3e
00000060: 466a 173e a341 2a3e 1518 8f3e 1873 843e
00000070: d17a 513e d3e0 5b3e 2e11 8f3e 68b4 1a3e
00000080: 22e1 9e3e f6e7 863d d6a5 6b3e a227 593e
00000090: 334d 5a3e a10e 783e b728 853e 9a04 5d3e
000000a0: 294c 493e 49f3 433e 3da3 843e fde2 803e
000000b0: 8429 a23e be50 c83d f3d6 843e 9f9e 4e3e
000000c0: 08f4 1e3e 7493 983e d323 883e 32c4 053e
000000d0: cd98 603e a21e 9f3e 2eb7 9a3e 6d34 483e
000000e0: 544b 673e 48df 853e 3132 a03e cb1e 483e
000000f0: d5f3 673e f0a9 af3e 9690 873e a0f0 a93e
0.36507824 0.2297618 0.33226997 0.11462684 0.18762495 0.21508971 0.24174555 0.12568484
0.2892675 0.1662262 0.32658935 0.2481137 0.21941997 0.14602312 0.26503187 0.10655043
0.16298692 0.10778706 0.24916914 0.13327906 0.33159178 0.2821814 0.16959074 0.2474716
0.14786634 0.16626601 0.2794806 0.2586906 0.20457007 0.21472482 0.27942795 0.15107882
0.31031138 0.06587212 0.2301248 0.21206525 0.21318512 0.2422433 0.26007625 0.21583787
0.19657959 0.19135775 0.2590579 0.25173178 0.316723 0.09781025 0.25945243 0.20177697
0.15522778 0.29799998 0.26589832 0.13063124 0.21933289 0.31078058 0.3021788 0.19551249
0.22587329 0.26146913 0.31288293 0.19542997 0.22651608 0.3430934 0.26477498 0.33191395

unknown_2 f4 [32]
00000000: 0582 923d eedf f33c a414 b03b ba96 f5ba
00000010: 23f0 973d 5879 173e 2d14 293d f478 c1bd
00000020: dd06 e73d 9667 92bb 7b61 ec3d c4bc 883d
00000030: fa83 4b3d c524 0a3e 6d65 b23c 9648 15bd
00000040: cb7f dc3d 6e23 4c3c dcf0 5b3d fec0 4f3d
00000050: b866 91bc 7564 453d d417 803d 2c48 063e
00000060: 431e 7cbd 074d b2bc 4e1e b7bd 98dc 5c3d
00000070: 5d1f e43d ad25 29bc 0e32 033d 977d 3f3d
0.071537055 0.029769864 0.0053735543 -0.0018736937 0.07418849 0.14792383 0.041279007 -0.09446898
0.11280606 -0.004467915 0.115420304 0.06676629 0.04968641 0.13490589 0.02177688 -0.036446176
0.10766562 0.012459619 0.0536965 0.05072116 -0.017749175 0.048191506 0.06254545 0.13113469
-0.061552297 -0.021765245 -0.08941327 0.053921312 0.111387946 -0.010323924 0.032030158 0.04675063

unknown_4 f4 [8]
00000000: dcb4 853e 5d5f ac3e 0d0f 123e 5082 763d
00000010: 1ff5 ff3d f27d ce3c ae17 153f 2a63 073f
0.26114547 0.33666506 0.14263554 0.06018287 0.12497925 0.02520654 0.5823926 0.5288569

unknown_6 f4 [41]
00000000: 20b4 e33d 7df0 523d 9a25 0abd f393 18be
00000010: d288 ca3d bb01 39be b020 dfbd a1a4 09be
00000020: ae1f d43e d624 babe e5f8 993e 27ce 2b3f
00000030: 72b1 b6be ab35 50be c962 0c3d cfda 96bd
00000040: 8c7b 30bf 5812 45bf 8e43 61be 3407 09be
00000050: 4696 73bd 9bde 71be 6d0e 86be 5437 b3be
00000060: 43c8 a1bd bc94 04bf 6821 2cbf 5f5b 5cbe
00000070: ee67 0abf 3411 0abe a485 fcbe 1c65 89be
00000080: 6a11 343e 8595 a0be 506f 84be 0f27 963d
00000090: 0c04 44be 8a20 8e3d b2c8 3bbe 4e66 ebbe
000000a0: f612 933d
0.111183405 0.05149888 -0.033727266 -0.14900188 0.09889378 -0.18067066 -0.108949065 -0.13441707
0.4143042 -0.3635623 0.30072704 0.6711144 -0.35682255 -0.20332973 0.034273896 -0.07365953
-0.6893852 -0.76981115 -0.21998426 -0.13381654 -0.059469484 -0.23620073 -0.2618288 -0.3500315
-0.07899525 -0.5178945 -0.67238474 -0.2151923 -0.54064834 -0.13483125 -0.4932071 -0.26834953
0.17584768 -0.31364074 -0.25866175 0.073316686 -0.19142169 0.069398 -0.18338278 -0.4597649
0.07181351

sequential_4/dense_16/MatMul;StatefulPartitionedCall/sequential_4/dense_16/MatMul f4 [64, 132]
00000000: db93 763e ebc2 9b3e 3b45 77be a390 f23e
00000010: 5958 1b3e 9690 87bd abc3 f3bd 5665 d73e
00000020: f091 36be 3c4f a2be d2af fb3e 7fc5 e2bd
00000030: 35eb fd3e 2e6a 8f3e 1c32 5dbe fc39 663e
00000040: f63d 103e 835c 8a3e 6f8b 293e 9c3a 07bd
00000050: f2fb e53d 3a4d a2bc 8bb5 b53e bf15 8dbe
00000060: 7d23 fcbe db4d 393e 4991 d8bd ea91 d0be
00000070: a239 f23c 4bd6 0a3e fe35 653e 222b 6b3e
00000080: 4713 073c 1ae8 13bf 7993 a3be b322 b1be
00000090: 60ca 9ebd 0385 c4bd 301a 0cbe 86dc 693d
000000a0: 334e 82be 12ae 85be 00d9 01bb 948c d7bd
000000b0: bb5f 87bd 6001 783d c03a c33e dda4 8cbe
000000c0: f917 a8be e3f2 043e 596a 053b 5422 aabd
000000d0: eb87 ee3d debc 9a3d ae0e 45be 9e2c c7bd
000000e0: ba4d a73c 6f11 dd3d 1e27 1c3d 5128 09bd
000000f0: 994d 363e 7385 2ebd 8133 8d3d 1134 43be
00000100: 59f5 f53d 083c 113e 0586 04be 4924 92be
00000110: bb7f adbd d708 cf3d 27b3 823e 7f16 8cbc
00000120: 9cc3 7cba 2f98 853e 29e0 813e 02d7 073f
00000130: 8b89 383e 95ee 803e ba2e 43be 67d0 58be
00000140: 2a81 db3c 9cf1 bc3e 405d a33d 86f7 8d3e
00000150: 0d28 9fbe 1369 993e 7859 92be f1ae 8bbe
00000160: 1ec8 313d ca08 f0be 035b 32be 86e5 b3be
00000170: 9cdd 6cbe eca3 53be cb14 1e3d f5dc 883e
00000180: 8db8 0e3e 5107 04be 8c24 98be a7f8 39be
00000190: b3a0 43bd 2e20 673e 6a0a 9fbe c1da 873e
000001a0: 8e6a 45be fa0e c5bb bb5a ea3d 8868 0bbe
000001b0: 641f 62bd 9f5c 053f 8402 e53d be8e aabd
000001c0: 5aa8 0abe 20c0 6f3d 68a6 d4bc 1b87 a53e
000001d0: 4d23 d13e ad09 933e 98d7 553d aa91 44be
000001e0: f184 b33d 5703 043e 8e5d b03e e144 6a3e
000001f0: 1f3f 453e 0100 cc3c 9b81 2cbe c748 d23d
00000200: e385 a33d f750 4b3e d69c b43e 05f5 973d
00000210: e152 873c b2f0 a83e fd3d 23be 7a0e 043f
00000220: 560a 3f3f ebe3 493e 25b4 993e 6b42 a53e
00000230: 35ab 66bd 2976 4a3c 2f33 a53d e675 0dbd
00000240: 6b0e c63e b595 2c3f 81c7 793e 835f 9a3d
00000250: a09e 123d 81de 933e 73c7 e43e 00c9 f03d
00000260: d640 eb3d aa10 593e 2637 153e 886d 09be
00000270: e18b 26bd e64d 88be 09e2 1fbe fefa 0fbe
00000280: d2b8 b1bb 0252 0bbe 3c46 46be b780 e3bd
00000290: b9ec 52bd b847 063f 1d94 d33d 2b6c 823c
000002a0: d775 c1bd b5e1 0fbd 3d32 4c3e dbb2 f73c
000002b0: 7a34 873e 1dc3 e7be 0bd8 133f ecca c2bd
000002c0: d136 a7be e220 fd3d 3c4f b13d db1d cbbe
000002d0: d443 8cbd ba65 b83c 6e70 3abe 0bc8 863c
000002e0: 6102 8abd 15b2 74bc b959 adbd 2216 a73c
000002f0: d602 8ebe 1f7b 22bd fdca 963e c9fc 0bbe
00000300: 0f67 6dbe d9c1 8cbe 1303 61bd ae49 d9bc
00000310: 3470 80bd b875 84be 050c 7cbe 55c3 a7bb
00000320: 7777 adbd 042e b0bd 7d82 173d deeb 973e
00000330: 6b4a 6c3e 2468 913e e616 4c3d 27f9 6cbe
00000340: 67f3 7dbd 53cf ddbd 20c0 d6bc 143e 39be
00000350: 95ca 233e ba3d 47be b069 41be 5657 80bd
00000360: a04a 45bd 4b05 fd3c 8983 603e e2dd 9bbd
00000370: b5d3 943d b00e 9ebe afc4 9abe 18f9 97be
00000380: 505e 52bd 1e6f 7ebc 4d23 a13d 7ab1 143d
00000390: 5f5f 623e cd31 c93d 4ad4 01be c239 d2bd
000003a0: 7779 4f3e 1dbb bf3e 6ef2 efbd 6fcc 253f
000003b0: 14f1 4dbe fc71 53be 569a 263e b55d a8bd
000003c0: c429 7abe bd52 513d c22b edbd 305c 263f
000003d0: fcd1 a33e a5cb b8be 9d41 debe 36e3 2cbe
000003e0: 8d48 bb3d 335b 5bbd 909e 283d 82a4 4fbd
000003f0: 7e17 043e 9a37 21be b681 aa3e 0053 5f3e
0.2407984 0.30422148 -0.24147503 0.47375974 0.1517042 -0.066193745 -0.11902555 0.420695
-0.17829108 -0.31701076 0.49157578 -0.11072826 0.4959351 0.28010696 -0.21601146 0.22483057
0.14086136 0.27023706 0.16557096 -0.03301488 0.112296954 -0.019812215 0.3549007 -0.27555653
-0.49245825 0.18096106 -0.10574586 -0.40736324 0.029568497 0.13558309 0.22383878 0.22965673
0.008244342 -0.57776034 -0.3194845 -0.34596786 -0.07753444 -0.095956825 -0.13681865 0.057095073
-0.25450286 -0.26109368 -0.001981318 -0.1052486 -0.06610056 0.060548186 0.3813076 -0.2746953
-0.3283079 0.12983279 0.0020357578 -0.08307329 0.11647018 0.07555555 -0.19243881 -0.09725307
0.020422805 0.10794341 0.038123243 -0.033485714 0.17803039 -0.042607736 0.06894589 -0.1906283
0.12009687 0.14183056 -0.1294175 -0.28543308 -0.08471628 0.10109108 0.25527307 -0.01710057
-0.0009642185 0.2609267 0.25366333 0.5306245 0.18021218 0.25182024 -0.19060794 -0.21173249
0.026794989 0.36903083 0.079767704 0.27727908 -0.31085244 0.29962978 -0.28583884 -0.27281907
0.043403737 -0.46881706 -0.1741753 -0.3513605 -0.23131412 -0.20668 0.03859405 0.26731077
0.13937588 -0.12893416 -0.29715383 -0.1816126 -0.047760677 0.2257087 -0.31062633 0.26534083
-0.19278929 -0.0060137482 0.11443087 -0.13614094 -0.055205718 0.52094454 0.111821204 -0.08328007
-0.13540784 0.058532834 -0.025958255 0.3232964 0.40847245 0.2871832 0.05220756 -0.19196191
0.08765591 0.12891899 0.34446377 0.22877838 0.1926236 0.024902346 -0.16846316 0.102677874
0.07984521 0.19855104 0.35275906 0.07419781 0.016519012 0.32996136 -0.15941615 0.5158459
0.74625146 0.1971585 0.30020252 0.32277235 -0.05631562 0.012357273 0.08066403 -0.034536265
0.38682875 0.67415935 0.24392511 0.07537749 0.035795808 0.28880695 0.44683418 0.11757088
0.11486976 0.21197763 0.14571819 -0.13420689 -0.040660743 -0.26621932 -0.1561357 -0.1406059
-0.0054236436 -0.13605502 -0.1936273 -0.11108535 -0.051495288 0.52453184 0.10330985 0.01592072
-0.09446304 -0.03512736 0.1994104 0.030236652 0.26407224 -0.45266047 0.5775153 -0.095113605
-0.3265901 0.123597875 0.08657691 -0.39671215 -0.06848875 0.022509445 -0.18206951 0.01645281
-0.06738735 -0.014935036 -0.08464379 0.020396296 -0.2773654 -0.0396682 0.29451743 -0.13670649
-0.23183845 -0.27491644 -0.054934572 -0.026524391 -0.06271401 -0.25871062 -0.2461396 -0.005119721
-0.08470052 -0.08602527 0.036989678 0.2967214 0.23075263 0.28399765 0.049826525 -0.23141919
-0.061999705 -0.108305596 -0.02621466 -0.18090087 0.15995248 -0.1945714 -0.18887973 -0.06266658
-0.04816687 0.030886313 0.21925177 -0.0761068 0.072669424 -0.3087058 -0.30228183 -0.2968223
-0.051359475 -0.015529422 0.07868061 0.036302067 0.22106694 0.09823952 -0.12678638 -0.10264923
0.20261179 0.37447444 -0.11716162 0.64765066 -0.20111495 -0.2064895 0.16269812 -0.08220998
-0.24429995 0.051104296 -0.11580612 0.64984417 0.31996143 -0.36092868 -0.43409434 -0.16883549
0.09144697 -0.05355377 0.041166842 -0.050693996 0.12899587 -0.15743867 0.33302087 0.21809006

sequential_4/dense_17/MatMul;StatefulPartitionedCall/sequential_4/dense_17/MatMul f4 [32, 64]
00000000: f3a5 683d e6db 8cbe fe0b 863e 7dc1 0bbf
00000010: 4eba c63e c88e 31bf e0e7 1bbe f2ec 263f
00000020: 3b49 e7bd 1371 51bd f035 55be 96d2 82be
00000030: a0cb f5bd 4184 933e b3d7 6c3e 56ce 8a3c
00000040: d76b 12bd 3a72 74be 835c 8ebe 0b76 0b3f
00000050: a27e 973e 8821 b13c bd77 403d 1b2c 8abe
00000060: a8ae 953c 858b d9bd 3161 633d 6b18 8c3e
00000070: afe2 73be 9792 553e e7c6 e13e 24c7 1dbe
00000080: 4822 0e3f bda8 d93e fad9 c3bd 7668 b93d
00000090: 5a32 d9be 39da 393e 3b35 c83e 1eb0 8cbd
000000a0: c1f6 a13e 98f4 813e 5d3f b33e 559f f4be
000000b0: fef1 efbe 18a8 db3e 205f 363e 6326 12be
000000c0: db22 fdbd 7c78 2cbc ce5e 913e 7ad2 b63e
000000d0: 2862 0c3f 21e9 cb3b 8b27 a6be e36c 253e
000000e0: ad80 9e3e 8b4a c83e d3d5 863e 5849 0ebe
000000f0: ba86 33be 62a3 5e3d d208 e0be bcab 48bf
00000100: f898 25bd 2230 a4be 0239 783e 3f3d 033f
00000110: a60a 033f 2fef f93e fc8c 02be bee4 043f
00000120: d8b9 b3be 369d 9cbe 1eeb 8f3c 9f53 f63e
00000130: 53c1 06bb d691 e8ba 2543 43be 02d7 e33d
00000140: 10e4 97bd 644a 913d 2e0b d23e 4e3b f0bc
00000150: 06e6 6dbe aef4 1abe ac89 bfbe efae 4dbd
00000160: 8f43 e7bd b24e 83bd d602 873d 2246 8c3e
00000170: 9eda 8c3e b7f4 35be d7b3 1ebc 522a f43d
00000180: d5c6 173e 23f8 bfbd d3ca f93e 6f42 31be
00000190: e530 833d ac6c 5abd a869 1b3e 335e 0cbe
000001a0: 8993 ba3d 8f4b 013f 1e61 313e 9f70 bbbe
000001b0: 1e8d 43bd e9d3 f5be 9899 623d 3304 89bd
000001c0: 067d be3e 3da2 cebd 216f 83bd 6924 113e
000001d0: 7b2c c2bd eaa1 273e 3db1 6d3e bf96 e7bd
000001e0: b79f 89bc ea1e 943e 8cae e6be 1889 4c3e
000001f0: 6d73 043f 6aa9 213e a1b6 6e3e 18ff cabe
00000200: a503 e6be 99bf 773e 1806 e2bc fa0d b43e
00000210: 19cc 0ebf 80aa 0bbe 39cd 8abe bb2c b1be
00000220: c29e d8be c5ce 003e 6e34 963e 229e 353d
00000230: 73f1 0c3e c705 7a3f 5d48 f73e 2a88 8e3d
00000240: 04eb d0bd 09ac 023f 5f3e 393d 9949 873e
00000250: b253 17bf e43f 303d 439d c93d 2aa5 b83e
00000260: 0141 393e c3d3 49be c20c 4dbd 0816 03be
00000270: 4219 27bf 838e 8e3e 89f9 45be d8ef 5f3e
00000280: 6a5a d3be 8420 cb3e 00a4 c5bd 2e72 91be
00000290: d7e6 083f 0751 833e b16b b6bd 1bff 773e
000002a0: 64fe 06bf fdf2 613e 744c ad3e 6e63 883e
000002b0: 1352 173e 23c3 023e 2310 103d 17bd 5fbd
000002c0: b2e9 d9be ecdf 643d 0f98 adbe b5af 7a3e
000002d0: 2e37 d23e a726 e53e b729 a73e 0821 803e
000002e0: f5cb 70be 0ff1 03bf bc1e 96be 68bd 0b3e
000002f0: 3080 2b3d ca1b 52be b817 26bd 72b6 9a3e
00000300: 6019 fe3e b1f7 573d edde 99bd 6ea0 7dbe
00000310: 64b9 b0be a769 01bf 0db5 91be ac69 103e
00000320: 718d 4d3e 834d aa3e 38be 2bbe cdef 903e
00000330: 2a3c de3d b8aa 2fbe d3a7 67bd 14f7 cd3e
00000340: 7e74 5b3e 93ff 59bd a60c 96be 4ea2 c6be
00000350: 9982 92be 1d94 eebd aa66 753e 12f2 d13c
00000360: 0ca4 29be 273f 573e 7b43 81be aff8 3d3f
00000370: 2d0d 8a3d 2ba9 4d3d c653 2c3e 5129 1abf
00000380: 5e93 a33e ba54 e33e dc64 98bc 4ca8 903c
00000390: 0c8e 2dbd 2211 c73c 2af8 c0be 4cec c83e
000003a0: a4d8 a33e c3c7 39bd d3ce 063f 827e 79bd
000003b0: ce6d 323d f9e7 8a3e 1eca ad3c a7af 6e3e
000003c0: e5c6 413e da7a 7c3e 38e6 043f 10b2 4bbe
000003d0: 276f bcbc 1aa5 5cbe 4e74 babe d5a5 123d
000003e0: 3190 003f fa30 1b3f 419b 08be 6113 15bd
000003f0: d0bc 0ebe 4d8b b6be f739 55be 6a7f 83be
0.056798887 -0.2751152 0.26181024 -0.54592115 0.38814014 -0.6935849 -0.15225172 0.652053
-0.112932645 -0.051133227 -0.20821357 -0.2555129 -0.12001729 0.2881184 0.23129158 0.016944092
-0.035747375 -0.23871699 -0.27804956 0.54476994 0.295888 0.021622434 0.04698919 -0.26986775
0.01827176 -0.10622314 0.05551261 0.2736238 -0.23816942 0.20856701 0.44097063 -0.15407997
0.5552106 0.4251155 -0.0956306 0.090531275 -0.42421228 0.18149652 0.39103112 -0.06869529
0.3163357 0.25381923 0.3500928 -0.4777781 -0.46864313 0.42901683 0.17809725 -0.14272456
-0.12360164 -0.010526773 0.28392643 0.35707456 0.54837275 0.0062228595 -0.32452044 0.16154818
0.30957547 0.39119372 0.2633501 -0.13895166 -0.17531863 0.054355033 -0.4375673 -0.78387046
-0.040429085 -0.32067972 0.24240497 0.5126533 0.51188123 0.48815295 -0.12749094 0.5191153
-0.35102725 -0.30588692 0.017568167 0.48110673 -0.0020562008 -0.0017743658 -0.19068582 0.11124994
-0.07416546 0.07094267 0.41024154 -0.029325154 -0.23232278 -0.151324 -0.37409723 -0.050215658
-0.11292183 -0.06411494 0.06592338 0.27397257 0.27510542 -0.17769133 -0.009686432 0.119221345
0.14821942 -0.093735 0.48787555 -0.17310499 0.0640581 -0.053326294 0.15177023 -0.13707809
0.09110171 0.5050592 0.17322204 -0.3660936 -0.047742 -0.48013237 0.05532226 -0.06690254
0.3720476 -0.10089538 -0.064176805 0.14174046 -0.0948114 0.16370359 0.23212142 -0.113080494
-0.01679979 0.28929836 -0.45055044 0.19974172 0.51738626 0.15787283 0.23311855 -0.39647746
-0.44924656 0.24194182 -0.027590796 0.35166913 -0.5578018 -0.1363926 -0.27109697 -0.3460444
-0.42308623 0.12578876 0.29336876 0.04434026 0.1376398 0.97665066 0.48297396 0.06959565
-0.10201076 0.51043755 0.045225497 0.26423338 -0.59112084 0.04302968 0.098444484 0.3606351
0.18091203 -0.19709687 -0.050060995 -0.12801373 -0.65272915 0.27843103 -0.19333471 0.21868837
-0.41279918 0.39673245 -0.09650421 -0.28407425 0.53477234 0.25647756 -0.08907259 0.24218409
-0.5273192 0.22065349 0.33847392 0.2663836 0.14777403 0.12769751 0.03517164 -0.05462369
-0.42561108 0.05587761 -0.33905074 0.2448109 0.41057724 0.44756052 0.32649013 0.250252
-0.23515303 -0.515397 -0.29320323 0.13646472 0.041870296 -0.20518413 -0.040549964 0.3021732
0.49628735 0.05272645 -0.07513223 -0.2476823 -0.34516442 -0.5055184 -0.28458443 0.1410281
0.20073487 0.33262262 -0.16771781 0.28307953 0.10851319 -0.17154968 -0.056556534 0.40227568
0.21431157 -0.05322225 -0.29306525 -0.38795704 -0.28615263 -0.11649344 0.23964944 0.025628123
-0.16566485 0.21020184 -0.25246796 0.74207586 0.06740794 0.05021016 0.16828832 -0.60219294
0.3194837 0.4440058 -0.018602781 0.017658375 -0.042371795 0.024300162 -0.37689334 0.3924278
0.3200122 -0.045356523 0.5265934 -0.060911663 0.04356175 0.27130106 0.021214541 0.23309194
0.18923528 0.24656239 0.51913786 -0.19892144 -0.02300222 -0.21547356 -0.36416858 0.03580268
0.5022002 0.6062161 -0.13340475 -0.036395434 -0.13939214 -0.35653153 -0.20822893 -0.25683147

sequential_4/dense_18/MatMul;StatefulPartitionedCall/sequential_4/dense_18/MatMul f4 [8, 32]
00000000: aa80 4cbe 1279 45be ebc7 4dbe cb44 49bc
00000010: e374 3a3f 28b3 7d3d 125a cf3e 15d4 0abd
00000020: 0a73 183f ce16 abbd 7588 753f ab6d 553f
00000030: 131e 8f3f 3654 2fbf 0b31 403f 8dab 213d
00000040: b194 863f 08a9 a93d ecab 8cbd 801c 123f
00000050: a125 b93e 2fca 5dbe 40b2 193e c140 953e
00000060: e472 443e 119f 40be 75b6 673e 2334 093f
00000070: 68a7 b43d f183 e63e bf8a 24be 58b5 86be
00000080: a0a6 923f 0d4d cf3d 4572 cbbe 7f0a 0d3f
00000090: 5432 17be 237d 063f 33ef 95be 0ff0 303f
000000a0: 3006 823f 0d25 f1bc f735 13be a143 273f
000000b0: 057f c93d 3131 96bc d3cf a63e 8184 f23d
000000c0: f1b9 1cbe b1c6 0a3d 00b9 503e 23c2 c63e
000000d0: c352 ff3e 76fe 8d3f 391b 9fbd 32ef 203e
000000e0: 66a2 92bd 6fc5 ff3d 1d78 e3bd 274c 3f3f
000000f0: 0665 2abe 29c5 fc3e 8220 ab3e 63d4 0b3f
00000100: 32ef 47be 66ff 2c3f bec0 913b e9bd a0be
00000110: f80e 89bd d3e7 1a3f 460f 253f 57d3 73be
00000120: ecba 193f 508a af3d 3034 13bf 1919 383f
00000130: 68cf a6bd 622f c73e 70b2 10be 3758 e03d
00000140: d21b db3d a0de a13e e070 3fbe 2b80 0a3f
00000150: 8912 14be f8c6 bf3d c3e2 cd3e 6fea ce3d
00000160: 683f a73d f99b e13e c14d 41be cfb4 173e
00000170: b7c1 5d3f bd72 b63e 9fec 5dbe 9940 473f
00000180: a892 4d3e 8175 c83e 282a 213d 2636 483f
00000190: 208a 083f 7eff eebd 32fd 743e c65c e03e
000001a0: fcf1 643e 2bd4 863f 7cc0 f23b f205 8d3d
000001b0: b74a 6a3d b28b 25bf b562 80be 8bfd 6a3f
000001c0: 223f 463d e00e ec3e 1803 08be 6a74 753e
000001d0: 2297 8abc 1b2b cbbe fd01 ad3e f554 db3d
000001e0: ae7f 853f bbe1 5d3f 41f6 473f 3804 c33e
000001f0: 6d2e 6c3b 4f42 e9bd 7154 f63e 4b3d dd3d
00000200: 33b6 ab3e 6162 4b3d 46df f9bd 8e50 92be
00000210: 9781 fc3d 517d 193e 8d27 42be 42df b6be
00000220: 17ac 103f e37b c9be c870 6c3e acb2 43be
00000230: 2c2c b03e f131 17be 4e21 97be 9f9e d53d
00000240: d3d2 c1bd 72d5 1e3f 428c 5b3f 0b30 553e
00000250: 4c19 843f fc2a 90be c9ac 2a3f 3b08 243f
00000260: c1eb 3dbd 7da5 a13e 62d5 ff3e de37 95be
00000270: 792f f03e 41bb 433f e814 de3e 607d 823e
00000280: f5d6 223e 98b3 d0be 5cfd 943f 9b4b bfbd
00000290: f27a 473f 3e38 373f 60ac 043f 5bdf 5e3e
000002a0: 743e 913e 66fd 9b3e c9af 20be f379 a0be
000002b0: 3479 943e 47dc d4bd ce10 ca3e d458 573e
000002c0: 6a0f 063f 1147 67bd 5493 103f ee86 33be
000002d0: 149d a7bd 67ff 7c3d 5799 8bbe 4e37 513f
000002e0: 0139 00bf 0372 893e f54a 693e 9fe2 d73e
000002f0: 6440 563f 6228 ea3e ac48 003f 8a67 0e3f
00000300: e093 9a3d 0b5e e93e 3a4e f53e 2960 413c
00000310: dbe0 4c3e f0db 0c3f 74f4 8c3c cfd6 5abd
00000320: f285 36bd 978d 89be c4b0 193f 0436 23be
00000330: 65dc 98bd 65ea bb3d 1c61 31be 5544 803c
00000340: 7614 583c 5bb6 653e dee1 16be b959 06bf
00000350: dadd 6bbe 6b67 b73e 0d37 d0be 799c 0a3e
00000360: ba03 a7be a6c3 733d 2ba7 88bd df4c 83be
00000370: 2a32 47be dcfa 533d 0589 233e cebf 11be
00000380: 8a04 9f3c 98ab 0cbf eaf5 df3e c753 c13e
00000390: 2116 aabd ba8d 54be a60c 4b3d e80a 413f
000003a0: f823 bdbd bbbf fbbe dce1 1ebe 6eae 983e
000003b0: bc3c 1cbe 2fbb 7e3f 5331 cd3e 11c5 8e3e
000003c0: ccf3 073f 2dd8 453f 0eaf d73e ff65 343f
000003d0: b552 473d fbe8 dabd 5d46 3e3f cf95 c0bd
000003e0: eeca 71be 964b ce3e 93b6 b03d 3a26 323f
000003f0: 3d65 ec3e afc9 5fbe 09f0 1c3e 726c c2be
-0.19970956 -0.19284466 -0.20095794 -0.012284468 0.72834605 0.061938435 0.40498406 -0.033893663
0.59550536 -0.08353959 0.9591134 0.83370465 1.1181053 -0.6848787 0.75074834 0.039470244
1.0514127 0.08284193 -0.06868729 0.5707474 0.3616152 -0.21659158 0.15009403 0.29150966
0.19184452 -0.18810679 0.22628196 0.5359518 0.08820993 0.45022538 -0.16068552 -0.2631023
1.14571 0.10122118 -0.39735618 0.5509414 -0.14765292 0.52534693 -0.29284057 0.691163
1.0158138 -0.029436613 -0.14376055 0.6533757 0.0983868 -0.018334003 0.32580432 0.11841679
-0.15305306 0.033880893 0.20383072 0.3881999 0.4986783 1.109328 -0.07768864 0.15716246
-0.07159881 0.12488829 -0.11106894 0.74725574 -0.166401 0.4936917 0.3342324 0.5462095
-0.1952484 0.6757721 0.0044480255 -0.3139489 -0.06692308 0.60509986 0.6447643 -0.23811089
0.60050845 0.08571303 -0.57501507 0.71913296 -0.08145028 0.38903338 -0.14130569 0.10954326
0.10698666 0.31615162 -0.18695402 0.5410182 -0.14460196 0.09364122 0.40212068 0.101033084
0.08166391 0.4406431 -0.18877317 0.14815067 0.8662371 0.35634413 -0.21672295 0.77832943
0.20075476 0.39152148 0.039346844 0.78207624 0.5333576 -0.11669825 0.23924711 0.4382078
0.22357935 1.0533499 0.0074082 0.068858996 0.05720016 -0.64666283 -0.25075307 0.91793126
0.048400052 0.461051 -0.1328243 0.2397019 -0.016917769 -0.39681324 0.3379058 0.10709564
1.042959 0.8667256 0.7811013 0.38089156 0.0036038414 -0.113896005 0.481113 0.10802706
0.33537444 0.04965437 -0.12200789 -0.28577083 0.12329405 0.1498921 -0.189604 -0.35717207
0.5651259 -0.3935233 0.23089898 -0.19111127 0.344087 -0.14765145 -0.29517597 0.10430645
-0.0946404 0.6204444 0.8576089 0.20819108 1.032022 -0.28157794 0.666699 0.6407506
-0.04636741 0.3157157 0.49967486 -0.29144186 0.4691122 0.764576 0.43375325 0.2548628
0.15902312 -0.4076202 1.1639819 -0.093405925 0.77921975 0.71570194 0.51825523 0.21764891
0.2836796 0.30466765 -0.15692057 -0.3134304 0.2899872 -0.10393577 0.39465946 0.21029979
0.5236727 -0.05646426 0.56474805 -0.1753194 -0.08184257 0.06176701 -0.27265427 0.81725013
-0.5008698 0.26844797 0.227825 0.42165086 0.83692 0.45733935 0.5011089 0.5562674
0.07547736 0.45579562 0.47911245 0.0118027115 0.2000765 0.550231 0.017206408 -0.053427514
-0.044561334 -0.26865837 0.6003535 -0.15938574 -0.07463912 0.091755666 -0.173222 0.015657583
0.013188472 0.22432844 -0.14734599 -0.52480656 -0.23033848 0.3582109 -0.40667 0.13536252
-0.3262003 0.059512757 -0.0667251 -0.25644585 -0.1945273 0.05175291 0.15970238 -0.14233324
0.019411344 -0.5494933 0.43742305 0.3775923 -0.08305002 -0.2075719 0.04957261 0.75407267
-0.09235376 -0.49169716 -0.15515846 0.2982058 -0.15257543 0.9950437 0.40076694 0.27884725
0.5310638 0.77282983 0.42125744 0.70468134 0.04866286 -0.10688969 0.74326116 -0.09403574
-0.23612568 0.40292042 0.08628573 0.6958958 0.4617099 -0.2185428 0.15325941 -0.37973362

sequential_4/dense_19/MatMul;StatefulPartitionedCall/sequential_4/dense_19/MatMul f4 [41, 8]
00000000: fd14 01be 61e2 26bf 6f69 87bf bbf9 eebe
00000010: d118 123e eef2 863e 3acb 103c 0be0 0d3e
00000020: 876b 033e ae0e 47bf f599 963e e722 53bf
00000030: 1104 6abe d2df 95be 5fd3 81bf cb94 993e
00000040: 375a 45bf c2df e5be bcb7 e33e 4e81 fbbe
00000050: bb7e 68bd eb6c 3b3e 31c5 a73d 106e f3be
00000060: 407c 37bf abf5 a8be ec09 36bf 6d8a ce3d
00000070: 1faa 293e c55c f83d e453 633e d766 d7be
00000080: 7e71 5f3e cb38 07bf 28a0 77be 1ed3 a23d
00000090: cbb8 6abf c5ae 1fbf 2421 49bf 0668 a43e
000000a0: 6871 5cbf c85e 183c 853c 163c fbfb 2abf
000000b0: 994a c63e 70fe 39bd 9ef6 0cbd b303 0fbf
000000c0: 9827 a53e e86d bfbd e0fe f63d 43e1 41be
000000d0: ca1a 69bf 2500 01be 1994 84bf e5e5 24bf
000000e0: b0df 5b3e a3ce 6ebf b882 d9be 0d0a a7bf
000000f0: c86c 863e b0a7 6b3e 09a9 03bf 4536 0abd
00000100: a4ff ac3e fbd1 55be 60ae dfbe 43a9 46bf
00000110: 60bc 56bf 1d5e 333e 8fbb 483d edbe a1be
00000120: eff9 833b 9922 a43d 0fa4 bd3d 5243 91bf
00000130: 8a17 ebbd 8cbb debc c14e 99bf b997 8fbd
00000140: 291e 2f3e d7dd 83bf 5ef1 bcbe ca96 a43e
00000150: d5c4 65bf c9c4 01be dbaa f4bd 9dfc 04bf
00000160: 5a15 fdbe eb4c 813e 96cd fdbe 1cfc 60be
00000170: 65d7 c4be 5ff1 29bf 5ea0 0b3f 91c9 1d3b
00000180: ce23 1cbd 590c 3b3c 56a4 b23e 937d 14bf
00000190: 165d 55bf 295a 823e 226c 01bf bb52 46bf
000001a0: 7caf 2abe f572 fbbc 217e 3fbf 8cd2 2fbf
000001b0: 7dc3 723e 8aa8 6a3e 3a5e acbd 1535 48bf
000001c0: face 73bf 014b 63bf 08c5 043c 7a36 10be
000001d0: ffd9 ec3e a96b 10bd 5f73 8ebe 4faa 73bc
000001e0: 854f e83d 40e6 20bf a5bd 41bf 16ea 2fbe
000001f0: 0b4a 873e 708c cdbe 5014 2dbf 03a2 4f3e
00000200: 45c1 33be a3e2 1fbf ab2a 213e 25ba 953d
00000210: ff28 a33e b0d8 35be 156a 82bf 3987 15bf
00000220: 8c74 78bd c701 f6bd ebd2 033d 0ab4 fe3d
00000230: c867 9ebc 9ed3 41bf cf1c b0bf 2ffe 40be
00000240: 75fe 0fbf 076a d6be f3fb f73e d085 1b3d
00000250: 55e5 373c 16fa 1cbf c63f 0fbf 1954 16be
00000260: 012d 44bf 344b efbe 2151 f1be e886 ca3e
00000270: b4d0 473d 349f d4be 7984 bfbe 4b9d 4abe
00000280: 0d52 3fbf 0a37 24bf 33af dabc 9aa6 863e
00000290: 62b5 0ebf 452d 24bf 1e97 37bf 0c24 cb3e
000002a0: b3fb 1bbf 83af 513d e296 49bd 9b3a b6be
000002b0: d041 fd3d 3927 bdbd a7a9 5fbf 0667 d03d
000002c0: 5c7c 89bf 5844 cabe 1e0c fcbe 0f95 ef3d
000002d0: ca83 ffbd 1613 db3d d0a1 25bf 8cc0 6c3e
000002e0: 44f5 14be 053e f13d 3351 83bf e47a 55be
000002f0: f1d6 0b3e 41aa 85be 22f9 5cbf eace fa3c
00000300: dbfd 0fbf c17d e03d f678 5c3d 7e28 113e
00000310: 5bcf 5cbf ba28 13b9 facb 74be 0bd9 49bf
00000320: e4e0 0fbe 131a 27bf 5b3f 50bf 4d51 033e
00000330: b724 29bf 5da3 923e 6681 26bf aa1a c33d
00000340: 03a0 833e 18c6 dbbe a01f 3abb 2b13 80bf
00000350: 95a4 983e 56f7 7abe b0ec 43bf 9aca e3bc
00000360: 6a92 383e e8bf 513d 6b6b 66bf 8bd7 b43d
00000370: 445c 2fbf 5177 8dbe 0323 21bf 34ec 88be
00000380: e1ba 8abe 36f6 413b c7d2 763c 700d 7fbd
00000390: 2e2d 8d3d b66d 51bc a489 26bf 0ae1 8cbf
000003a0: d219 8d3d d7d6 06bf 2b69 073e 9445 46be
000003b0: 74fb c0bd 95a8 a4bb 5b96 c0be 629c 1bbe
000003c0: a3dc 193e 5b04 983e ebd8 39bf bdf5 19bf
000003d0: 9922 83be 59ac 143d 1ad9 08bf 4b37 f1be
000003e0: 85ef 00be 1864 f03e 614b 10bf f741 0ebf
000003f0: e178 34bf c9cc 4bbf 969a 55bf d863 513e
-0.12605663 -0.65189177 -1.0579051 -0.46674904 0.14267279 0.26357216 0.0088375155 0.13854997
0.12833987 -0.77756774 0.29414335 -0.8247513 -0.22853114 -0.29272324 -1.014263 0.29996333
-0.7709078 -0.44897276 0.44476116 -0.4912209 -0.056761485 0.18303268 0.08191908 -0.4754491
-0.71673965 -0.3299993 -0.7110889 0.10084996 0.16568802 0.121270694 0.2219997 -0.42070648
0.21820638 -0.52821034 -0.24182189 0.07950424 -0.9168822 -0.6237605 -0.78566194 0.32110614
-0.86110544 0.009299941 0.009169702 -0.6679074 0.38728788 -0.045408666 -0.03441488 -0.5586502
0.3225677 -0.09347135 0.12060332 -0.18933587 -0.910565 -0.12597711 -1.0357696 -0.6441329
0.21472049 -0.9328405 -0.42482543 -1.3049942 0.26254869 0.23013186 -0.514298 -0.03374316
0.33788788 -0.20880882 -0.43687725 -0.7760202 -0.8388119 0.1751637 0.049006995 -0.31590977
0.004027597 0.080144115 0.09259807 -1.134867 -0.11479099 -0.027189039 -1.1977159 -0.07011361
0.17101349 -1.0302075 -0.369029 0.32146293 -0.89753467 -0.12672724 -0.119466506 -0.5194796
-0.49430352 0.25253996 -0.49570912 -0.21971172 -0.38445583 -0.6638393 0.54541576 0.0024076442
-0.038120084 0.011416518 0.34891003 -0.5800411 -0.8334516 0.25459412 -0.5055562 -0.77469987
-0.16668504 -0.030694464 -0.7480183 -0.68680644 0.23707385 0.22915855 -0.0841641 -0.78205997
-0.95237696 -0.8878632 0.008103617 -0.14083281 0.46260068 -0.035258923 -0.27822396 -0.014872148
0.11343292 -0.62851334 -0.7568 -0.1717914 0.26423678 -0.40146208 -0.6760912 0.20276646
-0.17554195 -0.62455195 0.15738933 0.07310895 0.31867215 -0.17758441 -1.0188624 -0.5840946
-0.060658023 -0.12012058 0.03218357 0.124366835 -0.019336596 -0.7571353 -1.3758792 -0.18846963
-0.56247646 -0.41877767 0.4843441 0.03796941 0.011224111 -0.613191 -0.55956686 -0.14680518
-0.7663117 -0.46737063 -0.4713221 0.3955605 0.04878302 -0.41527712 -0.37405756 -0.19786565
-0.74734575 -0.6414648 -0.02669487 0.26298982 -0.5574552 -0.64131576 -0.7171496 0.3967594
-0.6093094 0.05119277 -0.04921616 -0.35591587 0.12366068 -0.09235997 -0.87368244 0.101759
-1.0741076 -0.39505267 -0.49227995 0.116983525 -0.12476309 0.10697 -0.6470003 0.23120326
-0.14546686 0.117794074 -1.0259155 -0.2084766 0.13656212 -0.26106456 -0.86317647 0.030616242
-0.5624673 0.10961486 0.053826295 0.14175603 -0.862539 -0.00014034184 -0.23905936 -0.78846806
-0.14050633 -0.6527416 -0.8134667 0.12823983 -0.6607165 0.2864026 -0.65041196 0.0952657
0.25708017 -0.4292457 -0.0028400198 -1.000585 0.29813066 -0.24508414 -0.7653303 -0.027806569
0.18024603 0.051208407 -0.90007657 0.08830174 -0.6850016 -0.27630094 -0.6294405 -0.2674271
-0.27095702 0.0029596216 0.015064902 -0.062268674 0.06893383 -0.012782505 -0.6505377 -1.1006176
0.068896905 -0.5267157 0.13223712 -0.1936248 -0.09422961 -0.0050249794 -0.37614712 -0.15196374
0.15025572 0.29690823 -0.72596616 -0.6014059 -0.25612333 0.036297176 -0.5345627 -0.47112498
-0.1259137 0.46951365 -0.5636502 -0.55569404 -0.70496947 -0.7960935 -0.83439004 0.20448244
